…
Treino: (50000, 32, 32, 3) | (50000,)
Teste : (10000, 32, 32, 3) | (10000,)
Treino após divisão: (45000, 32, 32, 3)
Validação          : (5000, 32, 32, 3)
Parâmetros treináveis: 323,498

RESUMO DA ARQUITETURA

===================================================================================================================
Layer (type:depth-idx)                   Input Shape               Output Shape              Param #
===================================================================================================================
CNNZero                                  [1, 3, 32, 32]            [1, 10]                   --
├─Sequential: 1-1                        [1, 3, 32, 32]            [1, 128, 4, 4]            --
│    └─Conv2d: 2-1                       [1, 3, 32, 32]            [1, 32, 32, 32]           896
│    └─BatchNorm2d: 2-2                  [1, 32, 32, 32]           [1, 32, 32, 32]           64
│    └─ReLU: 2-3                         [1, 32, 32, 32]           [1, 32, 32, 32]           --
│    └─Conv2d: 2-4                       [1, 32, 32, 32]           [1, 32, 32, 32]           9,248
│    └─BatchNorm2d: 2-5                  [1, 32, 32, 32]           [1, 32, 32, 32]           64
│    └─ReLU: 2-6                         [1, 32, 32, 32]           [1, 32, 32, 32]           --
│    └─MaxPool2d: 2-7                    [1, 32, 32, 32]           [1, 32, 16, 16]           --
│    └─Dropout: 2-8                      [1, 32, 16, 16]           [1, 32, 16, 16]           --
│    └─Conv2d: 2-9                       [1, 32, 16, 16]           [1, 64, 16, 16]           18,496
│    └─BatchNorm2d: 2-10                 [1, 64, 16, 16]           [1, 64, 16, 16]           128
│    └─ReLU: 2-11                        [1, 64, 16, 16]           [1, 64, 16, 16]           --
│    └─Conv2d: 2-12                      [1, 64, 16, 16]           [1, 64, 16, 16]           36,928
│    └─BatchNorm2d: 2-13                 [1, 64, 16, 16]           [1, 64, 16, 16]           128
│    └─ReLU: 2-14                        [1, 64, 16, 16]           [1, 64, 16, 16]           --
│    └─MaxPool2d: 2-15                   [1, 64, 16, 16]           [1, 64, 8, 8]             --
│    └─Dropout: 2-16                     [1, 64, 8, 8]             [1, 64, 8, 8]             --
│    └─Conv2d: 2-17                      [1, 64, 8, 8]             [1, 128, 8, 8]            73,856
│    └─BatchNorm2d: 2-18                 [1, 128, 8, 8]            [1, 128, 8, 8]            256
│    └─ReLU: 2-19                        [1, 128, 8, 8]            [1, 128, 8, 8]            --
│    └─Conv2d: 2-20                      [1, 128, 8, 8]            [1, 128, 8, 8]            147,584
│    └─BatchNorm2d: 2-21                 [1, 128, 8, 8]            [1, 128, 8, 8]            256
│    └─ReLU: 2-22                        [1, 128, 8, 8]            [1, 128, 8, 8]            --
│    └─MaxPool2d: 2-23                   [1, 128, 8, 8]            [1, 128, 4, 4]            --
│    └─Dropout: 2-24                     [1, 128, 4, 4]            [1, 128, 4, 4]            --
├─Sequential: 1-2                        [1, 128, 4, 4]            [1, 10]                   --
│    └─AdaptiveMaxPool2d: 2-25           [1, 128, 4, 4]            [1, 128, 1, 1]            --
│    └─Flatten: 2-26                     [1, 128, 1, 1]            [1, 128]                  --
│    └─Linear: 2-27                      [1, 128]                  [1, 256]                  33,024
│    └─ReLU: 2-28                        [1, 256]                  [1, 256]                  --
│    └─Dropout: 2-29                     [1, 256]                  [1, 256]                  --
│    └─Linear: 2-30                      [1, 256]                  [1, 10]                   2,570
===================================================================================================================
Total params: 323,498
Trainable params: 323,498
Non-trainable params: 0
Total mult-adds (M): 38.78
===================================================================================================================
Input size (MB): 0.01
Forward/backward pass size (MB): 1.84
Params size (MB): 1.29
…
